NeuralNetwork/ported_models/Model_30x45_0.tflite (tflite, 99224 bytes, 6 tensors)

model_69/re_lu_175/Relu;model_69/batch_normalization_178/batchnorm/add_1 f4 [16]
0.41460803 0.93661475 0.87774396 -2.0447488 -0.32090583 -0.32333267 0.74220824 1.2351055
0.0018289387 1.1001496 -2.372687 -0.47415972 -0.45597497 9.752108 -0.29183942 4.1769805
00000000: 8147 d43e fcc5 6f3f d4b3 603f 2add 02c0
00000010: c54d a4be dc8b a5be 5c01 3e3f f017 9e3f
00000020: 00b9 ef3a b4d1 8c3f 1bda 17c0 10c5 f2be
00000030: 8d75 e9be a208 1c41 fa6b 95be d3a9 8540

model_69/re_lu_176/Relu;model_69/batch_normalization_179/batchnorm/add_1 f4 [128]
-0.24380676 -0.017045643 -0.34740296 -0.26583582 -0.16404653 0.26315582 -0.23901537 -0.26876438
-0.1256659 -0.12800893 -0.24971846 -0.4167853 -0.30663264 0.03865519 -0.3711167 0.018099487
-0.25782496 -0.17971684 -0.11511317 -0.28095633 0.14625853 -0.29830572 -0.22437607 -0.21210489
-0.17284216 -0.15486431 -0.18397218 -0.20317993 0.401761 0.011552222 -0.23060313 0.24671674
-0.3027113 0.03235651 0.3091901 -0.13774383 -0.21942928 -0.2973772 -0.33706516 -0.46584857
-0.47065675 -0.26298538 0.35783812 -0.18771614 -0.14366846 -0.24248888 -0.2984961 -0.16592298
-0.00252999 -0.012252506 -0.24985467 -0.15459976 -0.27442867 0.0006725341 -0.027204772 -0.26271862
-0.18421394 -0.27127367 -0.13998382 -0.1647541 -0.028657347 -0.12788521 -0.2979056 -0.06549604
-0.15233019 -0.028016161 -0.112983055 -0.11252619 -0.49632278 -0.10297386 -0.04022369 -0.15527983
0.555617 -0.15868397 -0.1421081 -0.43988395 -0.3284203 -0.20645955 0.55785924 0.11005807
0.2912349 -0.23335215 -0.27103227 -0.12029937 -0.16970134 -0.2797752 0.4327846 -0.3208146
0.001127556 -0.17915387 0.28849372 -0.27418756 -0.31944048 -0.13265613 -0.11100933 -0.13122366
-0.49053553 -0.26799884 -0.14650588 -0.2656588 -0.15879357 -0.18931726 -0.089642726 -0.33856496
-0.218215 -0.3674809 -0.04400069 -0.08040318 0.09749237 -0.21993643 -0.22662285 -0.15613079
-0.29407334 -0.25452486 -0.31520993 -0.3378136 -0.11141094 -0.39390242 -0.21036586 -0.30290043
0.06266715 -0.32535768 0.75808835 0.1203506 -0.39184356 -0.20679447 -0.21185327 0.25447583
00000000: 7ba8 79be 4ea3 8bbc cdde b1be a21b 88be
00000010: d0fb 27be 5cbc 863e 72c0 74be 7c9b 89be
00000020: 90ae 00be c614 03be 32b6 7fbe e264 d5be
00000030: f4fe 9cbe e854 1e3d 0203 bebe 6045 943c
00000040: a201 84be b107 38be 74c0 ebbd 82d9 8fbe
00000050: ccc4 153e 87bb 98be d7c2 65be 0632 59be
00000060: 89fd 30be c094 1ebe 3463 3cbe 660e 50be
00000070: 9eb3 cd3e 8845 3d3c 3a23 6cbe 50a3 7c3e
00000080: fafc 9abe 4388 043d 2a4e 9e3e b80c 0dbe
00000090: 12b2 60be d341 98be ce93 acbe b483 eebe
000000a0: ecf9 f0be 05a6 86be 8f36 b73e a938 40be
000000b0: d31d 13be 014f 78be 7bd4 98be b7e7 29be
000000c0: 30ce 25bb bcbe 48bc e7d9 7fbe 664f 1ebe
000000d0: ea81 8cbe 004d 303a 8bdc debc 0e83 86be
000000e0: 94a2 3cbe 62e4 8abe eb57 0fbe 4cb5 28be
000000f0: d0c2 eabc 57f4 02be 1587 98be ca22 86bd
00000100: 72fc 1bbe 2682 e5bc a963 e7bd 2274 e6bd
00000110: 051e febe f6e3 d2bd 99c1 24bd ad01 1fbe
00000120: ea3c 0e3f 0d7e 22be c984 11be 7838 e1be
00000130: b526 a8be 226a 53be ddcf 0e3f 2066 e13d
00000140: be1c 953e def3 6ebe bec4 8abe 845f f6bd
00000150: 30c6 2dbe b23e 8fbe f195 dd3e d041 a4be
00000160: 80ca 933a 1d74 37be 73b5 933e 5062 8cbe
00000170: b48d a3be 02d7 07be dc58 e3bd 7f5f 06be
00000180: 7927 fbbe 2537 89be a305 16be 6e04 88be
00000190: c89a 22be 62dc 41be 9b96 b7bd 6358 adbe
000001a0: c173 5fbe 7526 bcbe 113a 34bd 6caa a4bd
000001b0: 14aa c73d 0437 61be d20f 68be c0e0 1fbe
000001c0: c890 96be 1551 82be 3263 a1be e7f5 acbe
000001d0: 6b2b e4bd 94ad c9be 266a 57be c415 9bbe
000001e0: a257 803d 4895 a6be 1412 423f 607a f63d
000001f0: b89f c8be eec1 53be 10f0 58be a84a 823e

model_69/batch_normalization_178/batchnorm/mul_1 f4 [16, 1350]
0.011794756 0.08074488 0.045852385 -0.06211195 -0.13398835 -0.0022946266 -0.004011872 -0.037698567
-0.026550835 -0.04838943 -0.049620014 -0.16527104 0.034195505 -0.014602843 0.019806806 -0.01974468
-0.12172213 -0.07459033 -0.01593812 0.06423558 -0.051180452 -0.044763617 0.05651008 0.06092507
-0.00080289564 -0.0074410536 0.038683236 0.002499152 0.014382795 0.15246534 -0.04770862 -0.01974262
-0.00027471577 -0.026326537 -0.01108165 0.005655884 0.011613836 -0.0129349185 -0.0076163905 -0.012394673
-0.0432651 -0.010071161 -0.06512967 0.012265931 -0.021352887 -0.039764944 0.052715514 -0.05647897
-0.17505106 -0.029272895 -0.055571865 -0.056496553 0.07989763 -0.078867234 -0.10530209 -0.06760511
-0.2503074 -0.12317747 -0.11115442 -0.0011437597 -0.008701324 0.050980236 -0.020862471 0.15293421
-0.0024712626 -0.012292213 -0.01902936 -0.010517983 -0.02813692 0.021119965 0.0018369061 -0.039784607
0.01047639 0.0674476 0.0033093386 0.022057591 -0.008973292 0.09699197 0.046358187 -0.0024047834
0.005583389 -0.043311246 -0.06705765 -0.06636013 -0.02526794 -0.017919986 -0.03836662 -0.076797694
-0.06573111 -0.017685948 -0.051608715 -0.04885236 0.035614982 -0.014546158 -0.033364143 0.034238335
0.02886336 -0.059841447 -0.07006857 0.019414773 -0.07764119 -0.076210305 -0.040350355 0.01540465
0.11698744 0.060865704 0.045591902 0.05547289 -0.015659725 -0.02405491 0.042020336 0.011018425
0.10129254 0.021029724 0.0415791 0.049366903 0.03682163 -0.07435662 0.0188218 0.023356501
-0.031096622 0.027750997 -0.06924304 -0.064898744 0.034226783 -0.025583638 0.025548534 -0.06310755
-0.08500655 -0.06337969 -0.03886368 -0.06717178 -0.07170583 -0.13315015 -0.0777666 0.0009925595
0.08386448 -0.1546701 0.084339544 -0.010849911 -0.12548879 -0.020977179 -0.042403225 0.023503715
0.031749833 -0.043492336 -0.04727185 0.09085461 -0.016703589 0.09192112 -0.12393744 -0.08142354
-0.04495587 0.004389837 0.06792461 0.11064521 0.05359749 0.0942157 -0.0033260053 -0.0025573086
0.091612495 0.061634 0.12993014 0.042616658 -0.019744406 -0.09117796 -0.009720651 0.023019994
-0.0074898927 -0.03146019 0.03551167 -0.015168417 0.021946106 -0.013767659 -0.0697626 0.053684697
-8.004274e-06 -0.02701476 -0.07733827 -0.06765765 0.0044885064 -0.088877246 -0.22240283 0.094442286
-0.14908682 -0.24444638 0.061268393 0.09571236 -0.041708346 -0.07879539 -0.0068116602 -0.05564762
0.0675058 0.11551608 0.07404618 0.0068366607 -0.18091269 0.19814876 0.24834676 0.068579406
-0.060303196 0.037337318 -0.012224607 0.026636532 0.015926322 -0.04747981 0.02957719 0.24077547
-0.029291354 0.1437954 -0.014111666 -0.002269766 0.010414041 0.06103074 -0.03213249 -0.0031647235
-0.035592444 -0.028939847 -0.0006841514 -0.14013405 0.013946931 0.11497508 0.10290597 0.04844999
-0.07951708 -0.052842136 0.3417004 0.004793481 -0.29387 -0.32787424 0.012396409 0.111513175
0.21350694 0.078865565 -0.062659346 0.051685665 0.0103062475 0.012625802 0.19906104 0.12033423
-0.19973534 -0.18419051 -0.04052158 -0.03419284 0.055958305 0.026933182 0.01033586 0.025810182
-0.004896821 0.019689409 -0.03671276 0.010459106 -0.11189996 -0.026949039 -0.0021264702 -0.06261261
00000000: cb3e 413c 925d a53d b6cf 3b3d 1a69 7ebd
00000010: 3e34 09be 7261 16bb 0676 83bb d069 1abd
00000020: 2381 d9bc ff33 46bd 5b3e 4bbd d03c 29be
00000030: 9610 0c3d c340 6fbc e241 a23c 98bf a1bc
00000040: 7449 f9bd d1c2 98bd a990 82bc f28d 833d
00000050: 98a2 51bd 0e5a 37bd 1d77 673d 918c 793d
00000060: 6a79 52ba 15d4 f3bb 5072 1e3d d0c8 233b
00000070: d1a5 6b3c e01f 1c3e 1d6a 43bd 46bb a1bc
00000080: ba07 90b9 c0aa d7bc cf8f 35bc fe54 b93b
00000090: f547 3e3c fbec 53bc ea92 f9bb 0713 4bbc
000000a0: bf36 31bd 8301 25bc b462 85bd 0bf7 483c
000000b0: 40ec aebc 91e0 22bd 39ec 573d 7e56 67bd
000000c0: 9640 33be b6cd efbc 539f 63bd ee68 67bd
000000d0: 5ea1 a33d 2585 a1bd 9fa8 d7bd 8c74 8abd
000000e0: 4b28 80be 7844 fcbd eea4 e3bd 35ea 95ba
000000f0: 0090 0ebc a7d0 503d c6e7 aabc c99a 1c3e
00000100: e8f4 21bb 4765 49bc 76e3 9bbc 9e53 2cbc
00000110: 667f e6bc c703 ad3c 57c4 f03a 2ff5 22bd
00000120: 2aa5 2b3c f821 8a3d 7de1 583b 1fb2 b43c
00000130: b704 13bc baa3 c63d 15e2 3d3d 9299 1dbb
00000140: ddf4 b63b 2267 31bd 8555 89bd d2e7 87bd
00000150: b6fe cebc efcc 92bc 5126 1dbd 1c48 9dbd
00000160: 089e 86bd 1fe2 90bc a963 53bd 6a19 48bd
00000170: 04e1 113d 0253 6ebc d7a8 08bd 7f3d 0c3d
00000180: da72 ec3c 4e1c 75bd 1c80 8fbd bb0b 9f3c
00000190: 5802 9fbd 2614 9cbd 6a46 25bd c963 7c3c
000001a0: 1c97 ef3d 514e 793d 93be 3a3d 8b37 633d
000001b0: d348 80bc cd0e c5bc 841d 2c3d a086 343c
000001c0: 7772 cf3d 8746 ac3c d94e 2a3d f334 4a3d
000001d0: 47d2 163d 4948 98bd 2d30 9a3c 2256 bf3c
000001e0: 58be febc 0f56 e33c 4ccf 8dbd a2e9 84bd
000001f0: 6231 0c3d c794 d1bc 294b d13c 883e 81bd
00000200: ea17 aebd 36cd 81bd 862f 1fbd 5c91 89bd
00000210: 82da 92bd 8358 08be 1844 9fbd c518 823a
00000220: 24c1 ab3d d761 1ebe 36ba ac3d d3c3 31bc
00000230: 2280 00be 55d8 abbc 01af 2dbd dd8a c03c
00000240: 1d0c 023d 0525 32bd 21a0 41bd fb11 ba3d
00000250: f7d5 88bc 2441 bc3d ead2 fdbd 63c1 a6bd
00000260: a523 38bd 9fd8 8f3b 0f1c 8b3d f599 e23d
00000270: 0b89 5b3d 29f4 c03d 1cf9 59bb 8598 27bb
00000280: 559f bb3d ef73 7c3d 680c 053e ce8e 2e3d
00000290: 05bf a1bc 83bb babd 5e43 1fbc 6d94 bc3c
000002a0: c66d f5bb 66dc 00bd af74 113d f484 78bc
000002b0: 52c8 b33c bf91 61bc b2df 8ebd 7ce4 5b3d
000002c0: 184a 06b7 0f4e ddbc 8763 9ebd 1890 8abd
000002d0: 5214 933b 4605 b6bd 91bd 63be f56a c13d
000002e0: 37aa 18be 2750 7abe 91f4 7a3d d804 c43d
000002f0: 5fd6 2abd 7a5f a1bd 5934 dfbb c2ee 63bd
00000300: 7b40 8a3d b293 ec3d 86a5 973d 1106 e03b
00000310: 2d41 39be 82e7 4a3e 9d4e 7e3e 5c73 8c3d
00000320: 7c00 77bd 04ef 183d b849 48bc db34 da3c
00000330: eb77 823c 307a 42bd dd4b f23c d88d 763e
00000340: 6cf4 efbc 1a3f 133e 9e34 67bc 5bc0 14bb
00000350: a79f 2a3c 5ffb 793d 5c9d 03bd 4067 4fbb
00000360: 62c9 11bd 4213 edbc a058 33ba 4d7f 0fbe
00000370: ab81 643c 0e78 eb3d 5dc0 d23d 7f73 463d
00000380: dad9 a2bd ff70 58bd 5bf3 ae3e a212 9d3b
00000390: 2176 96be 22df a7be 4f1a 4b3c 0561 e43d
000003a0: 90a1 5a3e 4584 a13d 8b53 80bd 59b4 533d
000003b0: 89db 283c 74dc 4e3c a8d6 4b3e cb71 f63d
000003c0: 6c87 4cbe 709c 3cbe f5f9 25bd cb0d 0cbd
000003d0: 8934 653d faa2 dc3c bd57 293c e06f d33c
000003e0: 8375 a0bb af4b a13c 1e60 16bd ac5c 2b3c
000003f0: ce2b e5bd 3bc4 dcbc 405c 0bbb 0a3b 80bd

model_69/batch_normalization_179/batchnorm/mul_1 f4 [128, 16]
1.1832449e-31 4.5188805e-23 4.376328e-23 -1.6171073e-17 1.3016325e-32 6.7335255e-33 3.288567e-20 -5.0123257e-18
-9.604339e-15 9.844777e-20 -7.9673867e-32 5.0812374e-33 -1.3682348e-31 1.14261115e-32 1.5738714e-32 -1.410314e-32
-0.045574643 0.072333336 -0.15147777 -0.07368852 -2.2012236e-30 -2.395328e-20 0.16409701 -0.007969662
0.043764643 -0.1946193 0.5112882 3.473538e-06 -1.9029656e-18 -0.07542589 -7.702753e-21 0.35777995
-0.017317025 0.16292107 -0.25333068 -0.1070227 1.3256657e-28 -3.5864295e-17 0.695134 -0.05900737
0.20002685 -0.10515942 -0.17771503 -6.926368e-08 1.8366966e-11 -0.03935252 -6.561583e-17 -0.05384213
-1.7356799e-20 4.9077734e-13 -2.1059482e-12 -6.732894e-12 -4.410051e-29 -7.144099e-28 -7.2593372e-12 -5.1082503e-11
7.703474e-10 -2.7701319e-11 -1.0980521e-22 -8.766426e-29 1.2775014e-22 -5.013763e-19 1.0676156e-29 -1.5460116e-20
-0.22332714 0.03952471 0.23326758 -0.14837718 -1.3911343e-19 7.9975165e-11 -0.051319942 0.61287576
-0.19746843 -0.12055754 0.44211492 6.156124e-05 -4.681258e-10 0.45353082 -3.6330907e-14 0.06126303
0.0108802905 -0.19585773 -0.3122871 -0.038517367 -2.5137712e-21 2.804874e-20 0.3823121 -0.26837346
-0.3723109 -0.07125145 -0.3225453 1.69666e-08 -9.082238e-18 -0.10955299 8.283438e-16 -0.07517395
-0.17215392 0.027536975 -0.016225848 0.008090663 -2.6729827e-31 5.2896593e-21 0.09459568 -0.063826896
-0.09949447 0.009624647 0.37381208 8.7110784e-08 1.4783055e-19 0.08480606 -1.353257e-26 0.24051158
3.6028294e-05 1.758034e-08 1.1232901e-05 -2.821215e-06 1.3297232e-26 -3.4107235e-28 -1.6795565e-06 -2.8017532e-05
-5.7016303e-05 -1.3361213e-06 -0.00020050244 -8.0441044e-12 1.3556585e-24 0.000116414194 -3.8637628e-23 -1.966444e-05
-3.015578e-10 -7.170645e-30 -1.0674615e-15 3.9623962e-30 -8.463556e-27 1.5693716e-17 -9.884825e-31 -1.684577e-30
3.1037771e-22 2.0049085e-14 2.6744153e-06 -3.8519965e-09 9.410018e-19 -2.9521695e-07 -4.1296192e-22 -5.401187e-07
-9.327736e-33 3.517259e-32 1.4328724e-31 -1.0706092e-32 -5.7003226e-33 8.687705e-33 5.547297e-33 -1.9635937e-32
-7.8834993e-32 -8.381984e-31 7.5436274e-32 1.7897977e-32 -3.062933e-32 -1.271148e-31 3.5886505e-33 4.091289e-32
0.053022172 -0.2114355 -0.14312956 -0.1465037 -1.7683607e-21 -1.691539e-24 0.10116605 0.608124
0.114075296 -0.3326606 -0.16004446 3.1460867e-10 4.896708e-22 -0.05267487 -1.0466094e-17 -0.054637354
-0.23386732 0.06526474 -0.07860431 0.010640077 5.047545e-27 -9.007956e-21 0.117777646 0.33119214
0.41114464 0.15834619 -0.27866995 2.6690492e-12 1.5160758e-24 -0.18840314 9.614069e-21 -0.17768307
0.012623016 0.18026556 -0.23714168 -0.06822398 1.4168202e-20 1.2912066e-21 0.5214664 -0.119700365
0.025671985 0.05582752 -0.09375522 5.5689103e-10 2.0153207e-18 -0.013546265 5.101984e-20 -0.0033469445
0.004745551 0.035056002 0.083295435 -0.034705117 -1.2029164e-27 1.3191366e-26 -0.04058205 -0.057077717
-0.09818056 -0.053845108 -0.10691838 -1.629218e-13 -5.450756e-22 0.0015476259 -3.1497823e-22 -0.03749429
-0.35368204 0.07158439 -0.41357368 0.05643322 3.9255634e-23 3.466305e-15 0.4584224 -0.09345795
-0.18833978 -0.014225724 0.5818592 0.00014614913 -5.106491e-17 0.13340732 -2.2974396e-17 0.1290915
0.008604542 0.011937803 0.03073208 -0.010214732 -2.671563e-31 -7.329906e-23 -0.015127195 -0.020890728
-0.04402667 -0.022431077 -0.034389623 -1.1084858e-12 -4.332868e-20 0.008791542 1.5155919e-28 -0.01365093
00000000: 0e98 190c 0885 5a1a 51a0 531a de26 95a3
00000010: 542b 870a 90d9 0b0a 564c 1b1f 14ec b8a2
00000020: 3204 2da8 0774 e81f 5ed8 ce8b fc10 d309
00000030: 669b 318c a14f 6d0a ae70 a30a 9474 928a
00000040: 7aac 3abd 8023 943d fd1c 1bbe 02ea 96bd
00000050: a095 328e 7a3b e29e 0c09 283e 2f93 02bc
00000060: 8e42 333d 484a 47be c9e3 023f ee1a 6936
00000070: 016a 0ca2 e478 9abd 3a80 119e ef2e b73e
00000080: 6fdc 8dbc c8d4 263e 8fb4 81be b82e dbbd
00000090: 500c 2811 1665 25a4 4df4 313f b6b1 71bd
000000a0: d7d3 4c3e d25d d7bd eefa 35be 1cbe 94b3
000000b0: bb8e a12d 1c30 21bd c04c 97a4 9189 5cbd
000000c0: 2aee a39e 3c24 0a2b 6431 14ac 85e4 ecac
000000d0: bc9d 5f90 d167 6292 4c6a ffac c9a9 60ae
000000e0: 61c0 5330 d3a9 f3ad 11bf 049b 5c41 de90
000000f0: c170 1a1b ecfa 13a1 c589 580f 4404 929e
00000100: dfaf 64be aae4 213d b2dd 6e3e 30f0 17be
00000110: 743c 24a0 04de af2e dc34 52bd 6de5 1c3f
00000120: 2a35 4abe dfe6 f6bd e35c e23e 701a 8138
00000130: 6dad 00b0 3135 e83e af9e 23a9 f1ee 7a3d
00000140: 3f43 323c ee8e 48be 18e4 9fbe 63c4 1dbd
00000150: 68ef 3d9d d974 041f 69be c33e 3f68 89be
00000160: 899f bebe 48ec 91bd a824 a5be f3bd 9132
00000170: a889 27a3 515d e0bd fcc0 6e26 cdf4 99bd
00000180: 1e49 30be 3995 e13c 12ec 84bc b38e 043c
00000190: 8b7c ad8c 72d6 c71d 61bb c13d adb7 82bd
000001a0: c2c3 cbbd b2b0 1d3c 4c64 bf3e a911 bb33
000001b0: 0b87 2e20 cdae ad3d 2405 8694 ab48 763e
000001c0: 161d 1738 9403 9732 f174 3c37 1b54 3db6
000001d0: 7db0 8314 272e d891 1f6d e1b5 3107 ebb7
000001e0: ca24 6fb8 c754 b3b5 f73d 52b9 6d83 0dad
000001f0: 2ac7 d117 6523 f438 11d7 3a9a 10f5 a4b7
00000200: 7dc8 a5af 1e70 118f 61d6 99a6 e0bb a00e
00000210: 54a3 2794 bdbf 9023 f563 a08d 4cab 088e
00000220: a09c bb1b 0b96 b428 1b7a 3336 855a 84b1
00000230: 0bde 8a21 4f7e 9eb4 c39e f99b adfc 10b5
00000240: c0ba 418a 64a0 360b 5aff 390c 595b 5e8a
00000250: 3ac8 ec89 c36f 340a fb6c e609 46e9 cb8a
00000260: d7aa cc8b 6601 888d 01d8 c30b fcdc b90a
00000270: 5d09 1f8b 2301 258c 1411 9509 8f6e 540b
00000280: c72d 593d 8c82 58be 8e90 12be 1105 16be
00000290: 129d 059d 62e0 0298 2530 cf3d 04ae 1b3f
000002a0: 4fa0 e93d 7d52 aabe b2e2 23be 3cf5 ac2f
000002b0: 71fe 131c 9bc1 57bd bb10 41a3 6bcb 5fbd
000002c0: ea7a 6fbe 85a9 853d 4cfb a0bd b853 2e3c
000002d0: 30f4 c713 cd27 2a9e 6835 f13d 0492 a93e
000002e0: 8d81 d23e 8125 223e d4ad 8ebe 51d1 3b2c
000002f0: f399 ea17 c1ec 40be c99a 351e 8df2 35be
00000300: c4d0 4e3c 8997 383e 45d5 72be 04b9 8bbd
00000310: 9cd0 851e 231f c31c d27e 053f 7725 f5bd
00000320: 0e4e d23c 66ab 643d bd02 c0bd b913 1930
00000330: 55b4 1422 27f1 5dbc 34ef 701f 6958 5bbb
00000340: 9180 9b3b e296 0f3d cc96 aa3d f426 0ebd
00000350: 169c be92 16a4 8214 5d39 26bd 53ca 69bd
00000360: e412 c9bd b08c 5cbd 06f8 dabd 036f 37aa
00000370: 2fbd 249c b5d9 ca3a 8564 be9b 9d93 19bd
00000380: d015 b5be d69a 923d eebf d3be 8526 673d
00000390: 1fd4 3d1a 0bc6 7927 57b6 ea3e e266 bfbd
000003a0: 25dc 40be 0313 69bc b9f4 143f 9c3f 1939
000003b0: ce7e 6ba4 ee9b 083e c2e6 d3a3 9030 043e
000003c0: 11fa 0c3c c696 433c d8c1 fb3c b15b 27bc
000003d0: f464 ad8c ec39 b19a 0ed8 77bc 0823 abbc
000003e0: 4f55 34bd 61c1 b7bc 22dc 0cbd 6901 9cab
000003f0: 299d 4c9f 660a 103c c51f 4011 26a8 5fbc

model_69/dense_250/BiasAdd/ReadVariableOp f4 [3]
0.3786639 0.35641202 0.19902962
00000000: 3ce0 c13e a37b b63e 6cce 4b3e

model_69/dense_250/MatMul f4 [3, 128]
-0.0015635897 0.08850258 0.04680098 -0.013343439 0.085309245 -0.022265146 -0.017095221 -0.01078731
-0.0010310772 -0.00070801086 0.00033408822 -0.005753903 0.0020377978 0.0028832993 -0.022826707 -0.00099779
0.00076095 -0.0031764538 0.01052425 0.034838893 -0.018974336 -0.0028477677 -0.0027973119 0.0010135958
0.0069038533 -0.0014360156 0.00121586 -0.0017681618 -0.1183442 -0.00056523026 0.001185434 0.008831798
0.07605481 0.11577381 0.03402221 0.0014517567 0.0053332876 -0.009388069 -0.08045626 -0.09019092
0.052244347 -0.02790288 -0.036472976 0.0010338948 -0.00020402696 0.0019524101 -0.007217835 8.8962144e-05
3.940289e-06 -0.060268164 0.038982302 -0.00022679217 0.0031552585 -0.049862053 0.00027130815 -0.0014903077
-0.0005333752 0.0027651563 0.0018258812 -0.00041418726 0.00019392226 -0.004501547 -0.02292525 -0.09507311
0.0731077 -0.00043229567 -0.00568993 -0.002374274 -0.012632135 0.0030399475 -0.011248442 -0.0004926649
0.14062321 -0.0014935818 -0.00094646664 -0.07688433 0.03627769 0.00051213725 -0.09391055 -0.083474554
-0.055118177 0.028954903 -0.017735448 0.0010979578 0.0044637364 -0.009663782 -0.01116126 -0.009233848
-0.00051369565 0.028195247 0.014897749 0.00017353728 -0.0036423977 0.001986591 0.015170945 0.0015521807
0.0057892897 -0.0045627933 0.00014888911 -0.06072483 -0.0003553758 0.00033819219 0.0003891769 -0.030330582
-0.059687886 -0.09536829 -0.013179635 0.0006707761 0.14023742 0.0016769487 -0.00096702366 -0.00038377917
-0.012083558 -0.0067980513 -0.013674554 -0.009242306 -0.0013475011 -0.016752439 -0.006146989 0.035148934
0.023352409 -0.043290854 -0.022033393 0.00065682165 0.014851183 -0.000777153 -0.0723572 0.10871719
-0.0024202052 0.032915294 -0.00592346 -0.019925501 -0.06446872 0.04545553 -0.016183907 -0.0027331572
-0.001729838 -0.00019972828 -0.054306462 0.016220227 -0.03350818 0.014739808 -0.1370133 0.0052224407
0.0008689796 0.0017176287 0.034803867 -0.027239287 0.074797794 -0.0027785322 -0.0019032349 -0.0036374917
-0.0021073818 0.0026592202 -0.0010511057 0.0002824028 0.078070655 -0.0012839067 -0.0010497211 0.03651999
0.07568037 -0.022761665 0.06251297 0.00011134243 0.01172228 -0.009465963 -0.0009597299 -0.02487784
-0.07840699 -0.027166879 0.080747716 -0.0061176256 -0.00036355612 0.00061508996 -0.004716827 0.004262264
-2.0499898e-05 -0.047362506 -0.00611004 0.00097134453 -0.0024466284 0.0048090336 -8.545008e-05 0.0021079665
0.012410283 -0.01568492 -0.002404524 0.013348799 0.00017607413 0.0020295614 0.019938175 -0.002997086
-0.011157256 0.00066259236 -0.012117589 0.0010179074 -0.03359905 0.025761897 0.114148095 -0.00038360627
0.17556047 -0.0039962693 -0.00032067398 0.10627591 -0.032162752 -0.0009419256 0.04466828 0.016386865
0.04972232 -0.105803706 -0.008342442 -0.00029963048 -0.025951346 -0.005520423 0.06297462 3.7076294e-05
-0.000748805 -0.058430146 0.06561924 0.00078219525 -0.0188379 0.0015943337 0.036089744 1.6134361e-05
-0.0014204985 -0.0053778165 -0.00085339596 -0.0063704806 -0.0014260355 -0.00039961323 -6.347353e-05 0.0027460023
-0.0038834407 0.009212117 -0.03203053 0.00032026746 0.0943551 -0.0044664224 -0.0018141925 -0.00043550553
0.00020422996 0.002322357 0.010363257 -0.07184855 0.0023525204 -0.0777084 0.0028829365 -0.110910505
-0.042659953 0.014060442 0.08027277 0.00020279641 0.011424154 0.00033033025 -0.094047405 0.029867234
00000000: 5df1 ccba d740 b53d 62b2 3f3d 719e 5abc
00000010: 9db6 ae3d 6565 b6bc 470b 8cbc 42bd 30bc
00000020: 3625 87ba ce99 39ba 9028 af39 3d8b bcbb
00000030: 938c 053b bcf5 3c3b 13ff babc 47c8 82ba
00000040: 7d7a 473a 0d2c 50bb e76d 2c3c 3ab3 0e3d
00000050: 1170 9bbc 9da1 3abb 1b53 37bb a2da 843a
00000060: b839 e23b b038 bcba 7e5d 9f3a aac1 e7ba
00000070: 725e f2bd f62b 14ba 9160 9b3a 3fb3 103c
00000080: a0c2 9b3d d21a ed3d df5a 0b3d df48 be3a
00000090: dcc2 ae3b 6ad0 19bc 40c6 a4bd 04b6 b8bd
000000a0: 2bfe 553d 9594 e4bc b064 15bd c183 873a
000000b0: 12f0 55b9 03e8 ff3a 9783 ecbb 3091 ba38
000000c0: d336 8436 c0db 76bd e8ab 1f3d 0fcf 6db9
000000d0: 74c8 4e3b 273c 4cbd 5d3e 8e39 6e56 c3ba
000000e0: 34d2 0bba a037 353b 6852 ef3a 4627 d9b9
000000f0: 9c57 4b39 b781 93bb bccd bbbc b1b5 c2bd
00000100: 7db9 953d bea5 e2b9 9872 babb b599 1bbb
00000110: 04f7 4ebc db39 473b 634b 38bc 2f26 01ba
00000120: 88ff 0f3e 4ac4 c3ba 4d1c 78ba 8875 9dbd
00000130: ea97 143d f340 063a 2d54 c0bd b5f4 aabd
00000140: 99c3 61bd d532 ed3c ee49 91bc 5ae9 8f3a
00000150: 8944 923b d754 1ebc b8dd 36bc 9149 17bc
00000160: 88a9 06ba b8f9 e63c b015 743c 8ff7 3539
00000170: 4bb5 6ebb 7731 023b 8e8f 783c 8b72 cb3a
00000180: 15b4 bd3b 7c83 95bb 1e1f 1c39 99ba 78bd
00000190: bc51 bab9 634f b139 700a cc39 d777 f8bc
000001a0: 497b 74bd 7350 c3bd 65ef 57bc 06d7 2f3a
000001b0: 669a 0f3e 10cd db3a dc7f 7dba f835 c9b9
000001c0: 1efa 45bc 30c2 debb 3d0b 60bc 0b6d 17bc
000001d0: a29e b0ba 693c 89bc ae6c c9bb 54f8 0f3d
000001e0: 8d4d bf3c c051 31bd 607f b4bc 8e2e 2c3a
000001f0: 6052 733c dbb9 4bba 0330 94bd 1ea7 de3d
00000200: 4e9c 1ebb 30d2 063d 9519 c2bb ce3a a3bc
00000210: 2d08 84bd 942f 3a3d 1d94 84bc c51e 33bb
00000220: bbbb e2ba 276e 51b9 7470 5ebd 48e0 843c
00000230: e03f 09bd 3c7f 713c 374d 0cbe 0221 ab3b
00000240: 3ccc 633a 0e22 e13a 808e 0e3d ed24 dfbc
00000250: 962f 993d 0918 36bb f775 f9ba fc62 6ebb
00000260: 001c 0abb 5046 2e3b 41c5 89ba 760f 9439
00000270: 82e3 9f3d c348 a8ba cc96 89ba fc95 153d
00000280: 4ffe 9a3d ac76 babc cd06 803d 8380 e938
00000290: ce0e 403c 2017 1bbc 6296 7bba 9dcc cbbc
000002a0: d893 a0bd 138d debc 0f5f a53d 5d76 c8bb
000002b0: ad9b beb9 fd3d 213a 9d8f 9abb 76aa 8b3b
000002c0: 32f7 abb7 30ff 41bd bb36 c8bb d4a1 7e3a
000002d0: 9d57 20bb 1995 9d3b aa33 b3b8 cf25 0a3b
000002e0: 8054 4b3c a97d 80bc 3895 1dbb ecb4 5a3c
000002f0: 8aa0 3839 6402 053b 6255 a33c c26a 44bb
00000300: eccc 36bc d2b1 2d3a da88 46bc 4e6b 853a
00000310: 289f 09bd 9d0a d33c 7ac6 e93d c31e c9b9
00000320: 20c6 333e 23f3 82bb 2220 a8b9 2fa7 d93d
00000330: 17bd 03bd 8feb 76ba 16f6 363d bf3d 863c
00000340: a2a9 4b3d 9daf d8bd bdae 08bc b917 9db9
00000350: eb97 d4bc aae4 b4bb d6f8 803d 5e82 1b38
00000360: 744b 44ba 7354 6fbd 6163 863d 3c0c 4d3a
00000370: f151 9abc f6f8 d03a d7d2 133d 4758 8737
00000380: 0530 baba 6538 b0bb 6fb6 5fba 77bf d0bb
00000390: d0e9 baba 2e83 d1b9 181d 85b8 46f6 333b
000003a0: 5381 7ebb 6bee 163c 7232 03bd 92e9 a739
000003b0: 3f3d c13d 115b 92bb 33ca edba 9054 e4b9
000003c0: 9026 5639 af32 183b a6ca 293c 5525 93bd
000003d0: be2c 1a3b 9525 9fbd a6ef 3c3b 0c25 e3bd
000003e0: 34bc 2ebd c55d 663c 0d66 a43d bfa5 5439
000003f0: 602c 3b3c 2d30 ad39 ed9b c0bd 21ac f43c
